…
ucing_points,\n    beta=BETA,\n    N_data=len(dataset),\n    dtype=DTYPE,\n)\nprint(model)\n</pre> kernel = MaternKernel(nu=KERNEL_NU, scale=KERNEL_SCALE, dtype=DTYPE)  model = TEMPEST(     cuda=CUDA,     kernel=kernel,     dim_input=DIM_INPUT,     dim_latent=DIM_LATENT,     layers_hidden_encoder=LAYERS,     layers_hidden_decoder=LAYERS[::-1],     inducing_points=inducing_points,     beta=BETA,     N_data=len(dataset),     dtype=DTYPE, ) print(model) <pre>TEMPEST(\n  (kernel): MaternKernel()\n  (encoder): InferenceNN(\n    (inference_qzx): FeedForwardNN(\n      (model): Sequential(\n        (0): Linear(in_features=2, out_features=10, bias=True)\n        (1): BatchNorm1d(10, eps=1e-05, momentum=0.1, affine=True, track_running_stats=True)\n        (2): LeakyReLU(negative_slope=0.01)\n        (3): Linear(in_features=10, out_features=32, bias=True)\n        (4): BatchNorm1d(32, eps=1e-05, momentum=0.1, affine=True, track_running_stats=True)\n        (5): LeakyReLU(negative_slope=0.01)\n        (6): Linear(in_features=32, out_features=64, bias=True)\n        (7): BatchNorm1d(64, eps=1e-05, momentum=0.1, affine=True, track_running_stats=True)\n        (8): LeakyReLU(negative_slope=0.01)\n        (9): Linear(in_features=64, out_features=32, bias=True)\n        (10): BatchNorm1d(32, eps=1e-05, momentum=0.1, affine=True, track_running_stats=True)\n        (11): LeakyReLU(negative_slope=0.01)\n        (12): Linear(in_features=32, out_features=10, bias=True)\n        (batchnorm): BatchNorm1d(10, eps=1e-05, momentum=0.1, affine=True, track_running_stats=True)\n        (LeakyReLU): LeakyReLU(negative_slope=0.01)\n        (GaussianLayer): GaussianLayer(\n          (mu): FeedForwardNN(\n            (model): Sequential(\n              (0): Linear(in_features=10, out_features=2, bias=True)\n            )\n          )\n          (var): FeedForwardNN(\n            (model): Sequential(\n              (0): Linear(in_features=10, out_features=2, bias=True)\n              (softplus): Softplus(beta=1.0, threshold=20.0)\n            )\n          )\n        )\n      )\n    )\n  )\n  (decoder): FeedForwardNN(\n    (model): Sequential(\n      (0): Linear(in_features=2, out_features=10, bias=True)\n      (1): BatchNorm1d(10, eps=1e-05, momentum=0.1, affine=True, track_running_stats=True)\n      (2): LeakyReLU(negative_slope=0.01)\n      (3): Linear(in_features=10, out_features=32, bias=True)\n      (4): BatchNorm1d(32, eps=1e-05, momentum=0.1, affine=True, track_running_stats=True)\n      (5): LeakyReLU(negative_slope=0.01)\n      (6): Linear(in_features=32, out_features=64, bias=True)\n      (7): BatchNorm1d(64, eps=1e-05, momentum=0.1, affine=True, track_running_stats=True)\n      (8): LeakyReLU(negative_slope=0.01)\n      (9): Linear(in_features=64, out_features=32, bias=True)\n      (10): BatchNorm1d(32, eps=1e-05, momentum=0.1, affine=True, track_running_stats=True)\n      (11): LeakyReLU(negative_slope=0.01)\n      (12): Linear(in_features=32, out_features=10, bias=True)\n      (13): BatchNorm1d(10, eps=1e-05, momentum=0.1, affine=True, track_running_stats=True)\n      (14): LeakyReLU(negative_slope=0.01)\n      (15): Linear(in_features=10, out_features=2, bias=True)\n      (sigmoid): Sigmoid()\n    )\n  )\n)\n</pre> In\u00a0[\u00a0]: Copied! <pre>model.train_model(\n    dataset,\n    train_size=1,\n    learning_rate=LEARNING_RATE,\n    weight_decay=WEIGHT_DECAY,\n    batch_size=BATCH_SIZE,\n    n_epochs=EPOCHS,\n)\n\ntorch.save(model.state_dict(), 'model.pt')\nprint('Model saved to model.pt')\n</pre> model.train_mode
…
